bp_pytorch.pth (torch, 151650 bytes, 21 tensors)

cqt.lowpass_filter f4 [1, 1, 256]
00000000: db03 e9b8 9f89 ecb8 d579 f038 deca f538
00000010: c194 fbb8 1569 01b9 bc4a 0539 76f0 0939
00000020: fdde 0eb9 de9c 14b9 bca8 1a39 3590 2139
00000030: 36ca 28b9 09ed 30b9 4d66 3939 94d6 4239
00000040: 9da0 4cb9 d070 57b9 829d 6239 81e0 6e39
00000050: 3282 7bb9 a6a5 84b9 66ba 8b39 e56b 9339
00000060: 394e 9bb9 d7d6 a3b9 b790 ac39 ebfa b539
00000070: a496 bfb9 3fed c9b9 7e75 d439 b4c3 df39
00000080: 9443 ebb9 0795 f7b9 0f0c 023a 78bc 083a
00000090: b085 0fba 24c4 16ba 691b 1e3a 96ee 253a
000000a0: a4da 2dba 9849 36ba 94d1 3e3a c9e3 473a
000000b0: 4f0f 51ba bfcc 5aba f5a3 643a 2915 6f3a
000000c0: d3a0 79ba 7f67 82ba 4a0c 883a d306 8e3a
000000d0: bb0f 94ba 2173 9aba c3e5 a03a efb7 a73a
000000e0: 789a aeba eae1 b5ba 273b bd3a 0dff c43a
000000f0: 8bd6 ccba de1e d5ba 067d dd3a ae52 e63a
00000100: eb40 efba e7ad f8ba 6b1b 013b 3723 063b
00000110: 093b 0bbb 8a9a 10bb 8c0c 163b 0ecb 1b3b
00000120: 139f 21bb f7c4 27bb ff03 2e3b ee9a 343b
00000130: 634f 3bbb 9662 42bb 9a98 493b 2a35 513b
00000140: f4fa 58bb 4930 61bb 9c96 693b f476 723b
00000150: bc91 7bbb 6c99 82bb f78c 873b fbca 8c3b
00000160: 1433 92bb 6aee 97bb 9edc 9d3b b328 a43b
00000170: 98b2 aabb 76a7 b1bb ede7 b83b aca3 c03b
00000180: 8ebc c8bb 5b65 d1bb e781 da3b e548 e43b
00000190: 39a1 eebb bbc6 f9bb 7bd2 023c 663f 093c
000001a0: 7123 10bc 0fa5 17bc 0ec3 1f3c 51ab 283c
000001b0: 5665 32bc 942a 3dbc c010 493c 5264 563c
000001c0: 6853 65bc 974b 76bc c3d3 843c 8609 903c
000001d0: 6520 9dbc b1ae acbc 836e bf3c b88d d63c
000001e0: 35be f3bc 70ed 0cbd 71d9 263d 813e 4c3d
000001f0: e674 83bd fc35 b8bd c699 193e fa78 e63e
00000200: fa78 e63e c699 193e fc35 b8bd e674 83bd
00000210: 813e 4c3d 71d9 263d 70ed 0cbd 35be f3bc
00000220: b88d d63c 836e bf3c b1ae acbc 6520 9dbc
00000230: 8609 903c c3d3 843c 974b 76bc 6853 65bc
00000240: 5264 563c c010 493c 942a 3dbc 5665 32bc
00000250: 51ab 283c 0ec3 1f3c 0fa5 17bc 7123 10bc
00000260: 663f 093c 7bd2 023c bbc6 f9bb 39a1 eebb
00000270: e548 e43b e781 da3b 5b65 d1bb 8ebc c8bb
00000280: aca3 c03b ede7 b83b 76a7 b1bb 98b2 aabb
00000290: b328 a43b 9edc 9d3b 6aee 97bb 1433 92bb
000002a0: fbca 8c3b f78c 873b 6c99 82bb bc91 7bbb
000002b0: f476 723b 9c96 693b 4930 61bb f4fa 58bb
000002c0: 2a35 513b 9a98 493b 9662 42bb 634f 3bbb
000002d0: ee9a 343b ff03 2e3b f7c4 27bb 139f 21bb
000002e0: 0ecb 1b3b 8c0c 163b 8a9a 10bb 093b 0bbb
000002f0: 3723 063b 6b1b 013b e7ad f8ba eb40 efba
00000300: ae52 e63a 067d dd3a de1e d5ba 8bd6 ccba
00000310: 0dff c43a 273b bd3a eae1 b5ba 789a aeba
00000320: efb7 a73a c3e5 a03a 2173 9aba bb0f 94ba
00000330: d306 8e3a 4a0c 883a 7f67 82ba d3a0 79ba
00000340: 2915 6f3a f5a3 643a bfcc 5aba 4f0f 51ba
00000350: c9e3 473a 94d1 3e3a 9849 36ba a4da 2dba
00000360: 96ee 253a 691b 1e3a 24c4 16ba b085 0fba
00000370: 78bc 083a 0f0c 023a 0795 f7b9 9443 ebb9
00000380: b4c3 df39 7e75 d439 3fed c9b9 a496 bfb9
00000390: ebfa b539 b790 ac39 d7d6 a3b9 394e 9bb9
000003a0: e56b 9339 66ba 8b39 a6a5 84b9 3282 7bb9
000003b0: 81e0 6e39 829d 6239 d070 57b9 9da0 4cb9
000003c0: 94d6 4239 4d66 3939 09ed 30b9 36ca 28b9
000003d0: 3590 2139 bca8 1a39 de9c 14b9 fdde 0eb9
000003e0: 76f0 0939 bc4a 0539 1569 01b9 c194 fbb8
000003f0: deca f538 d579 f038 9f89 ecb8 db03 e9b8
-0.00011111024 -0.00011278991 0.00011466785 0.00011720297 -0.0001199632 -0.00012341545 0.00012711709 0.00013154917
-0.00013625245 -0.00014172817 0.00014749443 0.00015407878 -0.00016097058 -0.0001687297 0.00017681085 0.00018581218
-0.00019514789 -0.00020546024 0.00021611716 0.00022781083 -0.00023985727 -0.0002530042 0.00026651024 0.00028118413
-0.00029622184 -0.0003124985 0.00032914217 0.0003470996 -0.00036542595 -0.0003851447 0.0004052333 0.00042679685
-0.00044873042 -0.00047222545 0.00049609033 0.00052160723 -0.0005474938 -0.0005751273 0.0006031306 0.00063298026
-0.0006632006 -0.00069537153 0.00072791544 0.000762519 -0.00079749984 -0.00083465496 0.0008721941 0.00091202796
-0.0009522561 -0.0009949057 0.0010379639 0.0010835774 -0.0011296192 -0.0011783579 0.0012275506 0.0012795905
-0.0013321182 -0.0013876532 0.0014437184 0.0015029624 -0.0015627904 -0.001625981 0.0016898222 0.0017572248
-0.00182536 -0.0018972725 0.001970018 0.0020467767 -0.0021244904 -0.0022064769 0.0022895662 0.0023772153
-0.0024661466 -0.0025599578 0.0026552675 0.0027558166 -0.0028581254 -0.0029660813 0.0030761124 0.0031922557
-0.0033108564 -0.0034361056 0.0035642749 0.003699717 -0.0038386425 -0.0039855745 0.0041366774 0.004296658
-0.0044616554 -0.0046365755 0.0048175594 0.0050097345 -0.0052092783 -0.005421574 0.005642882 0.005878886
-0.006125993 -0.0063902563 0.0066683176 0.0069666975 -0.007282403 -0.0076225675 0.007984753 0.008376932
-0.008797512 -0.009255662 0.0097510945 0.010294751 -0.010888418 -0.011545796 0.01227206 0.013085442
-0.013996936 -0.01503267 0.016214257 0.017582666 -0.019180486 -0.021079393 0.023368126 0.026190624
-0.029753784 -0.034406126 0.040734712 0.049864296 -0.06418781 -0.08994672 0.15000066 0.45014173
0.45014173 0.15000066 -0.08994672 -0.06418781 0.049864296 0.040734712 -0.034406126 -0.029753784
0.026190624 0.023368126 -0.021079393 -0.019180486 0.017582666 0.016214257 -0.01503267 -0.013996936
0.013085442 0.01227206 -0.011545796 -0.010888418 0.010294751 0.0097510945 -0.009255662 -0.008797512
0.008376932 0.007984753 -0.0076225675 -0.007282403 0.0069666975 0.0066683176 -0.0063902563 -0.006125993
0.005878886 0.005642882 -0.005421574 -0.0052092783 0.0050097345 0.0048175594 -0.0046365755 -0.0044616554
0.004296658 0.0041366774 -0.0039855745 -0.0038386425 0.003699717 0.0035642749 -0.0034361056 -0.0033108564
0.0031922557 0.0030761124 -0.0029660813 -0.0028581254 0.0027558166 0.0026552675 -0.0025599578 -0.0024661466
0.0023772153 0.0022895662 -0.0022064769 -0.0021244904 0.0020467767 0.001970018 -0.0018972725 -0.00182536
0.0017572248 0.0016898222 -0.001625981 -0.0015627904 0.0015029624 0.0014437184 -0.0013876532 -0.0013321182
0.0012795905 0.0012275506 -0.0011783579 -0.0011296192 0.0010835774 0.0010379639 -0.0009949057 -0.0009522561
0.00091202796 0.0008721941 -0.00083465496 -0.00079749984 0.000762519 0.00072791544 -0.00069537153 -0.0006632006
0.00063298026 0.0006031306 -0.0005751273 -0.0005474938 0.00052160723 0.00049609033 -0.00047222545 -0.00044873042
0.00042679685 0.0004052333 -0.0003851447 -0.00036542595 0.0003470996 0.00032914217 -0.0003124985 -0.00029622184
0.00028118413 0.00026651024 -0.0002530042 -0.00023985727 0.00022781083 0.00021611716 -0.00020546024 -0.00019514789
0.00018581218 0.00017681085 -0.0001687297 -0.00016097058 0.00015407878 0.00014749443 -0.00014172817 -0.00013625245
0.00013154917 0.00012711709 -0.00012341545 -0.0001199632 0.00011720297 0.00011466785 -0.00011278991 -0.00011111024

cqt.lenghts f4 [294]
00000000: 00d0 e946 005c e546 00fc e046 00b2 dc46
00000010: 007c d846 005c d446 004e d046 0056 cc46
00000020: 0070 c846 009e c446 00de c046 0030 bd46
00000030: 0094 b946 000a b646 0092 b246 002a af46
00000040: 00d4 ab46 008c a846 0056 a546 002e a246
00000050: 0016 9f46 000e 9c46 0014 9946 0028 9646
00000060: 004c 9346 007c 9046 00bc 8d46 0008 8b46
00000070: 0060 8846 00c8 8546 003a 8346 00ba 8046
00000080: 0088 7c46 00b8 7746 0000 7346 005c 6e46
00000090: 00d0 6946 005c 6546 00fc 6046 00b4 5c46
000000a0: 007c 5846 005c 5446 0050 5046 0058 4c46
000000b0: 0070 4846 00a0 4446 00e0 4046 0030 3d46
000000c0: 0094 3946 000c 3646 0094 3246 002c 2f46
000000d0: 00d4 2b46 008c 2846 0058 2546 0030 2246
000000e0: 0018 1f46 0010 1c46 0014 1946 0028 1646
000000f0: 004c 1346 007c 1046 00bc 0d46 0008 0b46
00000100: 0060 0846 00c8 0546 003c 0346 00bc 0046
00000110: 0088 fc45 00b8 f745 0000 f345 0060 ee45
00000120: 00d0 e945 0060 e545 0000 e145 00b8 dc45
00000130: 0080 d845 0060 d445 0050 d045 0058 cc45
00000140: 0070 c845 00a0 c445 00e0 c045 0030 bd45
00000150: 0098 b945 0010 b645 0098 b245 0030 af45
00000160: 00d8 ab45 0090 a845 0058 a545 0030 a245
00000170: 0018 9f45 0010 9c45 0018 9945 0028 9645
00000180: 0050 9345 0080 9045 00c0 8d45 0008 8b45
00000190: 0060 8845 00c8 8545 0040 8345 00c0 8045
000001a0: 0090 7c45 00c0 7745 0000 7345 0060 6e45
000001b0: 00d0 6945 0060 6545 0000 6145 00c0 5c45
000001c0: 0080 5845 0060 5445 0050 5045 0060 4c45
000001d0: 0070 4845 00a0 4445 00e0 4045 0030 3d45
000001e0: 00a0 3945 0010 3645 00a0 3245 0030 2f45
000001f0: 00e0 2b45 0090 2845 0060 2545 0030 2245
00000200: 0020 1f45 0010 1c45 0020 1945 0030 1645
00000210: 0050 1345 0080 1045 00c0 0d45 0010 0b45
00000220: 0060 0845 00d0 0545 0040 0345 00c0 0045
00000230: 00a0 fc44 00c0 f744 0000 f344 0060 ee44
00000240: 00e0 e944 0060 e544 0000 e144 00c0 dc44
00000250: 0080 d844 0060 d444 0060 d044 0060 cc44
00000260: 0080 c844 00a0 c444 00e0 c044 0040 bd44
00000270: 00a0 b944 0020 b644 00a0 b244 0040 af44
00000280: 00e0 ab44 00a0 a844 0060 a544 0040 a244
00000290: 0020 9f44 0020 9c44 0020 9944 0040 9644
000002a0: 0060 9344 0080 9044 00c0 8d44 0020 8b44
000002b0: 0060 8844 00e0 8544 0040 8344 00c0 8044
000002c0: 00c0 7c44 00c0 7744 0000 7344 0080 6e44
000002d0: 0000 6a44 0080 6544 0000 6144 00c0 5c44
000002e0: 0080 5844 0080 5444 0080 5044 0080 4c44
000002f0: 0080 4844 00c0 4444 0000 4144 0040 3d44
00000300: 00c0 3944 0040 3644 00c0 3244 0040 2f44
00000310: 0000 2c44 00c0 2844 0080 2544 0040 2244
00000320: 0040 1f44 0040 1c44 0040 1944 0040 1644
00000330: 0080 1344 0080 1044 00c0 0d44 0040 0b44
00000340: 0080 0844 0000 0644 0040 0344 00c0 0044
00000350: 0000 fd43 0000 f843 0000 f343 0080 ee43
00000360: 0000 ea43 0080 e543 0000 e143 0000 dd43
00000370: 0080 d843 0080 d443 0080 d043 0080 cc43
00000380: 0080 c843 0000 c543 0000 c143 0080 bd43
00000390: 0000 ba43 0080 b643 0000 b343 0080 af43
000003a0: 0000 ac43 0000 a943 0080 a543 0080 a243
000003b0: 0080 9f43 0080 9c43 0080 9943 0080 9643
000003c0: 0080 9343 0080 9043 0000 8e43 0080 8b43
000003d0: 0080 8843 0000 8643 0080 8343 0000 8143
000003e0: 0000 7d43 0000 7843 0000 7343 0000 6f43
000003f0: 0000 6a43 0000 6643 0000 6143 0000 5d43
29928.0 29358.0 28798.0 28249.0 27710.0 27182.0 26663.0 26155.0
25656.0 25167.0 24687.0 24216.0 23754.0 23301.0 22857.0 22421.0
21994.0 21574.0 21163.0 20759.0 20363.0 19975.0 19594.0 19220.0
18854.0 18494.0 18142.0 17796.0 17456.0 17124.0 16797.0 16477.0
16162.0 15854.0 15552.0 15255.0 14964.0 14679.0 14399.0 14125.0
13855.0 13591.0 13332.0 13078.0 12828.0 12584.0 12344.0 12108.0
11877.0 11651.0 11429.0 11211.0 10997.0 10787.0 10582.0 10380.0
10182.0 9988.0 9797.0 9610.0 9427.0 9247.0 9071.0 8898.0
8728.0 8562.0 8399.0 8239.0 8081.0 7927.0 7776.0 7628.0
7482.0 7340.0 7200.0 7063.0 6928.0 6796.0 6666.0 6539.0
6414.0 6292.0 6172.0 6054.0 5939.0 5826.0 5715.0 5606.0
5499.0 5394.0 5291.0 5190.0 5091.0 4994.0 4899.0 4805.0
4714.0 4624.0 4536.0 4449.0 4364.0 4281.0 4200.0 4120.0
4041.0 3964.0 3888.0 3814.0 3741.0 3670.0 3600.0 3532.0
3464.0 3398.0 3333.0 3270.0 3207.0 3146.0 3086.0 3027.0
2970.0 2913.0 2858.0 2803.0 2750.0 2697.0 2646.0 2595.0
2546.0 2497.0 2450.0 2403.0 2357.0 2312.0 2268.0 2225.0
2182.0 2141.0 2100.0 2060.0 2021.0 1982.0 1944.0 1907.0
1871.0 1835.0 1800.0 1766.0 1732.0 1699.0 1667.0 1635.0
1604.0 1573.0 1543.0 1514.0 1485.0 1457.0 1429.0 1402.0
1375.0 1349.0 1323.0 1298.0 1273.0 1249.0 1225.0 1202.0
1179.0 1156.0 1134.0 1113.0 1091.0 1071.0 1050.0 1030.0
1011.0 991.0 972.0 954.0 936.0 918.0 900.0 883.0
866.0 850.0 834.0 818.0 802.0 787.0 772.0 757.0
743.0 729.0 715.0 701.0 688.0 675.0 662.0 649.0
637.0 625.0 613.0 601.0 590.0 578.0 567.0 557.0
546.0 536.0 525.0 515.0 506.0 496.0 486.0 477.0
468.0 459.0 450.0 442.0 433.0 425.0 417.0 409.0
401.0 394.0 386.0 379.0 372.0 365.0 358.0 351.0
344.0 338.0 331.0 325.0 319.0 313.0 307.0 301.0
295.0 289.0 284.0 279.0 273.0 268.0 263.0 258.0
253.0 248.0 243.0 239.0 234.0 230.0 225.0 221.0

cqt.cqt_kernels_real f4 [36, 1, 256]
00000000: 0000 0000 0000 0000 0000 0000 0000 0000
00000010: 0000 0000 0000 0000 0000 0000 0000 0000
00000020: 0000 0000 0000 0000 0000 0000 0000 0000
00000030: 0000 0000 0000 0000 0000 0000 0000 0000
00000040: 0000 0000 0000 0000 0000 0000 0000 0000
00000050: 0000 0000 0000 0000 0000 0000 0000 0000
00000060: cfb6 70b5 9e1f 05b7 90a0 f736 e91d 0738
00000070: 5e8a 9bb7 7aed 99b8 1f11 0838 dc3d 0a39
00000080: 3286 45b8 a7c1 59b9 3fbd 7d38 8bb6 9d39
00000090: 8428 94b8 a478 d7b9 cf7a 9e38 87f1 0c3a
000000a0: c4c7 99b8 d64a 32ba 3c25 8238 9d8a 5b3a
000000b0: 58af 27b8 1a33 84ba ffca b536 5143 9c3a
000000c0: d915 3538 bcc4 b5ba d5d1 e0b8 db80 d03a
000000d0: c70a 4539 733c ecba aa25 96b9 0e5c 043b
000000e0: 7a8c d339 70d8 12bb 4b8b 0dba 7570 213b
000000f0: 8c82 363a 1600 30bb 42be 64ba 8b62 3e3b
00000100: 0721 8c3a ac72 4cbb 6081 a8ba 4d0b 5a3b
00000110: 2473 c73a 9c07 67bb ebe1 e8ba 8043 733b
00000120: 0659 063b f69b 7ebb 6760 19bb b677 843b
00000130: 5772 2d3b 0c0f 89bb da76 42bb 2405 8d3b
00000140: e952 583b 5a4c 90bb b5e8 6ebb 65d8 923b
00000150: ef0b 833b 729e 94bb e3de 8ebb 4695 953b
00000160: ecda 9a3b 58b5 95bb efec a6bb e6f8 943b
00000170: 2b01 b33b 025c 93bb 6a03 bfbb a7dc 903b
00000180: 2ddf ca3b bb7a 8dbb db7f d6bb 1438 893b
00000190: f6d0 e13b 7718 84bb 44be ecbb 2843 7c3b
000001a0: 0434 f73b f3b5 6ebb 8e8f 00bc 0d9c 5f3b
000001b0: a236 053c ab0b 4fbb 9986 09bc 4e1e 3d3b
000001c0: 6277 0d3c 88f0 29bb 9201 11bc bfa1 153b
000001d0: 771e 143c e753 00bb 28c8 16bc 6c56 d43a
000001e0: 92f9 183c a19b a6ba 82ae 1abc d98d 6f3a
000001f0: b5e3 1b3c 9554 10ba db96 1cbc edcb 4039
00000200: 9dc6 1c3c a0b5 4039 a172 1cbc 7e22 10ba
00000210: 8c9b 1b3c 2d03 6f3a fe42 1abc 6c14 a6ba
00000220: 906b 183c 6f78 d33a cc18 16bc 045f ffba
00000230: 264f 133c 7abe 143b f313 10bc 90c5 28bb
00000240: 586d 0c3c 8ba3 3b3b 3d62 08bc d639 4dbb
00000250: 41fa 033c c36c 5d3b 417b febb c723 6cbb
00000260: 4d6a f43b b049 793b 2fd4 e9bb 6966 82bb
00000270: 35cc de3b 954f 873b 4466 d3bb 3d5b 8bbb
00000280: aab6 c73b 2e86 8e3b f0d1 bbbb 24cf 90bb
00000290: a7cc af3b cc36 923b 38bb a3bb bdbf 92bb
000002a0: b8b1 973b 6f6e 923b b4c3 8bbb 2c49 91bb
000002b0: 0904 803b ff57 8f3b 6c09 69bb 9ca4 8cbb
000002c0: 67ad 523b 443a 893b 9a13 3dbb aa25 85bb
000002d0: fd58 283b cd74 803b a997 14bb a96d 76bb
000002e0: 9de6 013b d5f7 6a3b 26b3 e0ba 1baa 5ebb
000002f0: a301 c03a cfa7 513b 22d2 a1ba 3e15 44bb
00000300: c636 863a 5117 363b 9874 5aba 30d3 27bb
00000310: 0ac0 2d3a e06d 193b bc47 06ba e80b 0bbb
00000320: fde9 c739 e6a1 f93a f445 8db9 eebe ddba
00000330: c77c 3839 b8b0 c23a 4b51 d1b8 59b5 a8ba
00000340: ce82 2738 8a06 903a c7e5 a636 39b2 71ba
00000350: 8e91 18b8 eeb8 463a a844 6a38 3f74 1fba
00000360: 9f8f 88b8 5b55 f839 345b 8a38 112b bab9
00000370: aff5 7cb8 c5c0 8439 cb08 5238 bba2 30b9
00000380: c844 1cb8 07ec d338 8921 c837 36f7 55b8
00000390: 143a 47b7 2d16 9837 2b32 5c36 5127 05b6
000003a0: 0000 0000 0000 0000 0000 0000 0000 0000
000003b0: 0000 0000 0000 0000 0000 0000 0000 0000
000003c0: 0000 0000 0000 0000 0000 0000 0000 0000
000003d0: 0000 0000 0000 0000 0000 0000 0000 0000
000003e0: 0000 0000 0000 0000 0000 0000 0000 0000
000003f0: 0000 0000 0000 0000 0000 0000 0000 0000
0.0 0.0 0.0 0.0 0.0 0.0 0.0 0.0
0.0 0.0 0.0 0.0 0.0 0.0 0.0 0.0
0.0 0.0 0.0 0.0 0.0 0.0 0.0 0.0
-8.967299e-07 -7.934779e-06 7.3798656e-06 3.2214364e-05 -1.8541872e-05 -7.339842e-05 3.2440872e-05 0.0001318375
-4.709344e-05 -0.00020766874 6.049615e-05 0.0003008138 -7.0647366e-05 -0.0004109788 7.556902e-05 0.00053765666
-7.332818e-05 -0.00068013126 6.2058185e-05 0.0008374842 -3.9979204e-05 -0.001008603 5.417852e-06 0.0011921917
4.317411e-05 -0.0013867836 -0.000107202366 0.0015907543 0.00018791399 -0.0018023386 -0.0002863829 0.002019647
0.0004034972 -0.0022406839 -0.00053994794 0.002463368 0.0006962202 -0.002685552 -0.00087258604 0.0029050435
0.0010690995 -0.003119628 -0.001285594 0.0033270896 0.001521681 -0.0035252338 -0.0017767524 0.003711909
0.002049984 -0.0038850284 -0.0023403408 0.004042591 0.0026465857 -0.004182702 -0.0029672892 0.0043035913
0.0033008403 -0.004403633 -0.0036454622 0.0044813626 0.0039992253 -0.0045354897 -0.0043600663 0.004564914
0.0047258046 -0.004568737 -0.0050941627 0.0045462726 0.0054627857 -0.004497052 -0.0058292644 0.004420835
0.0061911554 -0.004317609 -0.0065460033 0.0041875932 0.006891365 -0.0040312367 -0.00722483 0.0038492177
0.0075440425 -0.0036424368 -0.007846726 0.0034120113 0.008130701 -0.0031592648 -0.008393907 0.0028857174
0.00863442 -0.0025930721 -0.008850472 0.0022832004 0.0090404665 -0.001958126 -0.009202994 0.0016200072
0.009336846 -0.0012711176 -0.00944102 0.00091382634 0.009514739 -0.0005505768 -0.009557451 0.00018386515
0.0095688375 0.00018378207 -0.009548814 -0.0005498304 0.0094975345 0.00091175997 -0.009415386 -0.0012670881
0.009302989 0.0016133914 -0.0091611855 -0.0019483273 0.008991038 0.002269654 -0.008793819 -0.0025752522
0.008570991 0.0028631415 -0.008324203 -0.003131499 0.008055271 0.003378675 -0.007766158 -0.0036032067
0.007458961 0.0038038306 -0.00713589 -0.0039794934 0.0067992457 0.00412936 -0.0064514 -0.00425282
0.0060947733 0.0043494916 -0.0057318136 -0.0044192243 0.0053649726 0.0044620987 -0.0049966834 -0.0044784234
0.00462934 0.004468731 -0.004265273 -0.0044337716 0.003906731 0.0043745036 -0.0035558594 -0.004292084
0.0032146813 0.004187854 -0.0028850795 -0.004063328 0.0025687807 0.0039201737 -0.0022673404 -0.0037601984
0.0019821294 0.0035853286 -0.0017143234 -0.0033975902 0.0014648925 0.003199089 -0.001234595 -0.0029919888
0.0010239712 0.0027784894 -0.0008333414 -0.0025608055 0.00066280423 0.0023411438 -0.00051223836 -0.0021216813
0.00038130573 0.0019045442 -0.00026945735 -0.0016917863 0.0001759409 0.0014853692 -9.9810386e-05 -0.0012871429
3.9937724e-05 0.0010988277 4.973935e-06 -0.00092199777 -3.6375182e-05 0.0007580657 5.585389e-05 -0.00060826907
-6.511737e-05 0.0004736584 6.597341e-05 -0.00035508772 -6.0310293e-05 0.00025320626 5.007609e-05 -0.0001684529
-3.7257356e-05 0.000101052276 2.3857474e-05 -5.101339e-05 -1.1874847e-05 1.8130138e-05 3.2811756e-06 -1.984143e-06
0.0 0.0 0.0 0.0 0.0 0.0 0.0 0.0
0.0 0.0 0.0 0.0 0.0 0.0 0.0 0.0
0.0 0.0 0.0 0.0 0.0 0.0 0.0 0.0

cqt.cqt_kernels_imag f4 [36, 1, 256]
00000000: 0000 0000 0000 0000 0000 0000 0000 0000
00000010: 0000 0000 0000 0000 0000 0000 0000 0000
00000020: 0000 0000 0000 0000 0000 0000 0000 0000
00000030: 0000 0000 0000 0000 0000 0000 0000 0000
00000040: 0000 0000 0000 0000 0000 0000 0000 0000
00000050: 0000 0000 0000 0000 0000 0000 0000 0000
00000060: 8905 0436 6c78 66b6 c9ec 96b7 91a6 5137
00000070: b382 5438 4200 d4b7 53a7 d2b8 bcec 2638
00000080: 21b8 2f39 1fd0 62b8 ff2a 84b9 95a0 8a38
00000090: a27d b939 2cf2 9ab8 2b9e f7b9 8e41 9e38
000000a0: 361d 1f3a 6091 90b8 4972 46ba e21a 5c38
000000b0: 168a 713a fb55 ccb7 da09 90ba e6e1 8eb7
000000c0: 2ad9 a83a 8876 9938 0eff c2ba e576 18b9
000000d0: 9742 de3a 1c47 7639 6166 faba d399 b3b9
000000e0: 9494 0b3b 6408 f639 3923 1abb 2a5f 21ba
000000f0: 9bbb 283b 46f7 4c3a 4739 37bb 7fd7 7dba
00000100: 3a77 453b 09fe 993a 3d50 53bb 2fa9 b7ba
00000110: 469f 603b 77dc d73a d33f 6dbb d37f faba
00000120: 4b0e 793b 05ba 0f3b 2df4 81bb 7b49 23bb
00000130: a2d6 863b e5d7 373b 211f 8bbb bd4b 4dbb
00000140: 68bf 8e3b 8f88 633b 7caa 91bb 3b6f 7abb
00000150: c8d4 933b 1def 883b 4634 95bb f3d8 94bb
00000160: 8ec0 953b 67e2 a03b fa72 95bb 07f8 acbb
00000170: ae46 943b d105 b93b b138 92bb 65f7 c4bb
00000180: f247 8f3b 30b8 d03b 4e75 8bbb a133 dcbb
00000190: 94c3 863b 5655 e73b 8037 81bb 4c09 f2bb
000001a0: 65af 753b 103c fc3b 4759 67bb 75ed 02bc
000001b0: 2781 573b 066a 073c e43e 46bb 5e8b 0bbc
000001c0: 92ad 333b bd49 0f3c 33eb 1fbb 129e 12bc
000001d0: 7e18 0b3b 0d82 153c 24b1 eaba 2ef0 17bc
000001e0: 4da1 bd3a d3e3 193c 714f 8fba 3e59 1bbc
000001f0: cb18 403a a54d 1c3c 84ac c0b9 34bf 1cbc
00000200: 0000 0000 13ad 1c3c f17f c039 6617 1cbc
00000210: e0bf 3fba 51ff 1a3c d5eb 8e3a f066 19bc
00000220: 44f1 bcba 5751 173c 31a0 e93a 85c2 14bc
00000230: ce55 0abb 61bf 113c 24e5 1e3b a84d 0ebc
00000240: ab5b 32bb e573 0a3c 7499 443b 5b39 06bc
00000250: 5581 55bb fca5 013c 2af9 643b 9a84 f9bb
00000260: 10ea 72bb b32e ef3b 9140 7f3b 325d e4bb
00000270: 69f6 84bb b823 d93b 5871 893b 6496 cdbb
00000280: ec0c 8dbb a8c9 c13b e9c6 8f3b 15d2 b5bb
00000290: 049f 91bb 30c4 a93b df96 923b 3eb4 9dbb
000002a0: 04b2 92bb 14b6 913b d6f5 913b eedc 85bb
000002b0: 8169 90bb 7d76 743b e915 8e3b 0dc5 5dbb
000002c0: 8b05 8bbb 59c6 473b 6744 873b b298 32bb
000002d0: d8df 82bb a757 1e3b eecc 7b3b ca1b 0bbb
000002e0: e5cf 70bb fdf4 f13a c7e9 643b 900b d0ba
000002f0: 473d 58bb 5498 b03a 43ee 4a3b 17b1 93ba
00000300: 6121 3dbb 96c8 723a b5fb 2e3b ef71 43ba
00000310: 61a2 20bb 705d 193a 383a 123b 4af7 e8b9
00000320: 5de7 03bb 7a5d a939 da99 eb3a e92b 67b9
00000330: 4119 d0ba 285d 0e39 f68c b53a c96f 8eb8
00000340: f330 9cba 5fb1 8337 8f3c 843a 4eca ba37
00000350: e8c3 5bba 853b 47b8 4d9b 323a fd4a 8138
00000360: 2d4c 0dba 276b 8bb8 012d d839 c5df 8538
00000370: 9259 9eb9 2460 69b8 4ace 5a39 62fb 3738
00000380: 9a04 0bb9 87e4 ffb7 e9ea 9a38 5258 9337
00000390: 5819 08b8 3cfb ebb6 bf34 0637 c185 6635
000003a0: 0000 0000 0000 0000 0000 0000 0000 0000
000003b0: 0000 0000 0000 0000 0000 0000 0000 0000
000003c0: 0000 0000 0000 0000 0000 0000 0000 0000
000003d0: 0000 0000 0000 0000 0000 0000 0000 0000
000003e0: 0000 0000 0000 0000 0000 0000 0000 0000
000003f0: 0000 0000 0000 0000 0000 0000 0000 0000
0.0 0.0 0.0 0.0 0.0 0.0 0.0 0.0
0.0 0.0 0.0 0.0 0.0 0.0 0.0 0.0
0.0 0.0 0.0 0.0 0.0 0.0 0.0 0.0
1.9672755e-06 -3.4342766e-06 -1.7991655e-05 1.24961525e-05 5.0666462e-05 -2.527249e-05 -0.00010044747 3.979796e-05
0.00016757894 -5.4076427e-05 -0.00025209037 6.6102635e-05 0.00035379553 -7.3884e-05 -0.00047229356 7.5462376e-05
0.00060697214 -6.893533e-05 -0.00075701304 5.2477124e-05 0.0009213997 -2.4358733e-05 -0.0010989264 -1.7032911e-05
0.0012882103 7.317687e-05 -0.0014877038 -0.00014540141 0.0016957101 0.00023486878 -0.0019103998 -0.00034256149
0.0021298276 0.00046927028 -0.002351953 -0.0006155843 0.0025746587 0.0007818829 -0.0027957724 -0.00096832955
0.003013088 0.0011748682 -0.003224387 -0.0014012213 0.0034274622 0.0016468902 -0.0036201372 -0.0019111581
0.0038002904 0.0021930945 -0.0039658756 -0.0024915624 0.0041149417 0.0028052267 -0.004245654 -0.003132566
0.0043563135 0.0034718846 -0.004445372 -0.0038213271 0.0045114495 0.004178895 -0.0045533506 -0.004542464
0.0045700734 0.0049098018 -0.0045608254 -0.0052785906 0.0045250272 0.0056464453 -0.0044623245 -0.006010937
0.00437259 0.006369613 -0.004255927 -0.006720022 0.00411267 0.0070597334 -0.0039433837 -0.007386362
0.0037488576 0.0076975897 -0.0035301016 -0.0079911845 0.0032883377 0.008265024 -0.0030249888 -0.008517114
0.0027416688 0.008745608 -0.0024401664 -0.00894882 0.0021224315 0.009125245 -0.0017905575 -0.009273572
0.0014467627 0.009392696 -0.001093371 -0.009481726 0.0007327913 0.009539996 -0.00036749628 -0.009567071
0.0 0.0095627485 0.00036716418 -0.009527063 -0.00073146634 0.009460286 0.0010904024 -0.009362921
-0.0014415164 0.0092357015 0.001782423 -0.00907958 -0.0021108272 0.008895726 0.0024245465 -0.008685507
-0.0027215283 0.008450483 0.0029998692 -0.008192386 -0.0032578309 0.007913109 0.0034938552 -0.0076146843
-0.0037065782 0.007299268 0.0038948397 -0.0069691176 -0.0040576947 0.0066265725 0.00419442 -0.0062740315
-0.004304519 0.005913932 0.0043877256 -0.0055487254 -0.004444005 0.005180858 0.0044735516 -0.0048127463
-0.0044767875 0.004446754 0.0044543548 -0.0040851748 -0.0044071083 0.003730207 0.004336108 -0.0033839375
-0.004242604 0.0030483215 0.0041280272 -0.0027251658 -0.0039939694 0.0024161132 0.0038421708 -0.002122628
-0.0036745009 0.0018459853 0.0034929381 -0.0015872587 -0.0032995509 0.0013473132 0.003096477 -0.0011267987
-0.0028859007 0.0009261457 0.0026700322 -0.0007455637 -0.0024510848 0.000585041 0.0022312533 -0.00044434733
-0.0020126917 0.00032303837 0.0017974928 -0.00022046235 -0.0015876667 0.00013576879 0.0013851214 -6.791909e-05
-0.0011916443 1.5699012e-05 0.0010088849 2.2267133e-05 -0.00083833793 -4.750073e-05 0.0006813303 6.165167e-05
-0.0005390074 -6.647995e-05 0.0004123226 6.3836145e-05 -0.00030202843 -5.5641067e-05 0.00020866949 4.386472e-05
-0.00013257787 -3.0504785e-05 7.387048e-05 1.7564893e-05 -3.244853e-05 -7.0327933e-06 7.999303e-06 8.5876314e-07
0.0 0.0 0.0 0.0 0.0 0.0 0.0 0.0
0.0 0.0 0.0 0.0 0.0 0.0 0.0 0.0
0.0 0.0 0.0 0.0 0.0 0.0 0.0 0.0

contour_1.0.weight f4 [8, 8, 39, 3]
00000000: 2f3d e33c 0cb7 5b3d 48da 703b 5106 9f3c
00000010: bb64 4f3c 0b71 94bc 9aed abbc 27e3 373c
00000020: ff09 82bc 13e6 eb3b 3c1e cd3c f95b 88bc
00000030: 6a0b 673c 5a39 4c3d 1423 d33b 4642 213c
00000040: ecc4 093d 65a6 f33c ded3 843c 45bb ab3c
00000050: 37c8 b9bb 2f0d 03bd 5173 67bc a0ac 51bc
00000060: 52e8 05bc 62f3 423c 0620 14bd b6d4 c2bc
00000070: 4b38 52bb 13d7 02bd c895 bbbc a84a 29bc
00000080: 7f7c 9dbc d3a8 0fbc 9657 1e3c 5e12 b3bc
00000090: 5a37 683b a967 e0bb a379 e7bc fb0b d1bb
000000a0: 8c78 ab3b 111d 4cbb dfcc 623c b9a6 833b
000000b0: 5975 c43b 2aa5 12bb 2989 b43c fdc5 253c
000000c0: b60d 1a3d 96ca 1d3d 6084 7e3d 5226 0e3d
000000d0: 549c 703d f574 433d 0eca 163d 283e a53c
000000e0: e042 4d3c 9704 b13c cb89 ec3c 7323 743b
000000f0: 378b 38bc 6ad1 f63a b001 8dbd c690 f53b
00000100: 9dfe f2b9 00b4 4abd 73ae 90bb 0112 083c
00000110: e92b 74bc 0326 8bbc 90c8 a4bb e95b 32bc
00000120: e25c a7bc 8d3c bfbb a8d8 51bd b923 f13b
00000130: 7c7c 093d 2778 0f3c 0750 863c 434e 223d
00000140: 8737 a63c ef2f 5ebb ca91 223b e7e3 c9bc
00000150: ab35 a33b a5e1 3dbc b150 13bd cf53 033a
00000160: 8755 493c 18ca 7bbc 74dd 0e3d 8ccc a13c
00000170: b7b1 aabb 5712 073d df04 5f3d 837c 763d
00000180: c1d5 b23c 68e1 3b3d 8c9d a83c 752c c3bc
00000190: b82a 383b ebf6 f0bc 4471 113a 6fcf 99bb
000001a0: 830b e1bc 7435 f83b 5cc6 873c a258 8abc
000001b0: 8747 2c3c 8277 bd3c 7ed3 ad3c 26d9 36ba
000001c0: 10e3 043c e3ad 8b3b 7d9a 07bd ea3a 4abb
000001d0: e310 dbbc e7b0 85bd 1e24 4ebd 9404 74bd
000001e0: ce2e b4bc 0273 33bc fc0e 95bc d911 72bc
000001f0: e91b dabc 4e5c 05bc 56c6 8ebc 412d c7bc
00000200: 9de3 20bd d401 91bb 7735 7a3b a02c 473b
00000210: f573 aabc 2411 913c 1aad 2c3c e350 22bc
00000220: aba6 76bc c658 03bb a4d1 b2bc 0514 013a
00000230: 7800 91bb 6eda adbc 1e9c 38bc 619c f7bc
00000240: c7e5 49bd 7ccd d6bc 126c debc ead3 80bc
00000250: 79b2 803c a4db 33bc 6119 8cbc 970b f2bc
00000260: 4ece 82bc a540 14bc 424b 47bd e475 17bd
00000270: e9e2 89bc c78d 4b3c 3590 fb3b c8c8 b7bd
00000280: 3837 bbbd 5545 86bd 409c 643d e0c1 8c3d
00000290: 85de 6e3d 907f fc3d af9b 1c3e d5bd ca3d
000002a0: 17b1 cb3b 338c f23c 615c 0c3d 52a5 03be
000002b0: fac5 dabd 8b16 f6bd 9c24 e9bd c98c cabd
000002c0: 4ddd e4bd 4eaf ecbb 26d4 5c3c 363d 41bc
000002d0: 52ef 59bd 7b5b 8ebd 3b21 75bd 3315 533d
000002e0: cffb 633c d8df 12bd 60d1 41bc 69b8 39bc
000002f0: af48 2ebd 605f 2bbd 6ab5 03bd 66c3 51bd
00000300: 6a8f dc39 d0b3 863c 8a7a 493b 5f17 96b9
00000310: 9136 f53c 0739 9f3c 19fe 15bd 2bee 8fbb
00000320: b1ce 39bc 9744 63bc 0a06 8abc 4cc4 33bc
00000330: 6eb2 11bc 2742 a3bb e8cd 9bbc d0f0 c5bb
00000340: 1d84 ed39 d9ba 243c e4a5 0d3d 1e5f 3d3d
00000350: e040 ca3c 6172 073d 8867 463d ac2e 243d
00000360: 58fb 033b bfa2 ebbb 0f92 a43c ce03 013b
00000370: 11a8 0e3d c4f3 123d 2f2a 84bb 780e 213d
00000380: a74e 2f3c cc0f b4bc a8bf 003c 7319 4cbc
00000390: ce7e 84bc eff4 3e3d bf74 333d bf1c 34bc
000003a0: 4987 ab3c 80c0 003c c734 8e3c f913 01bc
000003b0: 0e1d 213b e1bf 2c3d f921 403d 647b 953d
000003c0: 6811 623c 1191 0b3d a75b 6a3d fedd 76ba
000003d0: a84d bfbc 20f0 d63a 2784 b13b a01e 5fbb
000003e0: 3cc8 42bc 649e 4d3c a267 c33c b39d f13a
000003f0: 28b8 373d a90f 053d 26b3 c83c 49d9 653d
0.027739136 0.053641364 0.00367512 0.019412192 0.012658293 -0.01812031 -0.02098732 0.011223591
-0.015873907 0.007199058 0.025038831 -0.016645418 0.014101842 0.049859382 0.0064433906 0.009842461
0.033635065 0.029742429 0.016214307 0.02096332 -0.0056696194 -0.031994995 -0.014126615 -0.012797505
-0.008173065 0.011898847 -0.036163352 -0.02378307 -0.003207701 -0.031943392 -0.02289857 -0.010332741
-0.019224403 -0.008768278 0.009664437 -0.021859344 0.0035433383 -0.0068482948 -0.028256243 -0.006379602
0.005232876 -0.0031145255 0.01384279 0.0040176776 0.0059954342 -0.0022376277 0.02203806 0.010118005
0.037610732 0.03852328 0.06213796 0.034704514 0.058742836 0.04771896 0.036813788 0.02017124
0.012528151 0.021608634 0.028874299 0.0037252575 -0.01126366 0.0018830721 -0.068850875 0.007494065
-0.0004634754 -0.049488068 -0.004415327 0.008305074 -0.014903047 -0.016985899 -0.0050287917 -0.010886171
-0.020430032 -0.0058360756 -0.05123201 0.007358995 0.033565983 0.008756674 0.016395582 0.039625417
0.02029015 -0.0033903082 0.0024806135 -0.024644805 0.004980763 -0.011589442 -0.035965625 0.0005009742
0.012288458 -0.015368007 0.034879163 0.019750856 -0.0052091735 0.032976475 0.054448005 0.060177337
0.021830441 0.04586926 0.020582937 -0.02382491 0.0028101634 -0.029414615 0.0005548189 -0.0046939175
-0.02747131 0.0075747315 0.016574077 -0.016887967 0.0105151 0.023128275 0.021219011 -0.00069751067
0.008110777 0.0042626723 -0.033106316 -0.003085787 -0.02674145 -0.06527882 -0.050327413 -0.05957468
-0.021994974 -0.010952713 -0.018195622 -0.014774763 -0.026624637 -0.008139683 -0.017428558 -0.024313571
-0.03927957 -0.0044252668 0.003817884 0.0030391589 -0.020807246 0.017708369 0.0105393175 -0.00990698
-0.015054385 -0.0020041927 -0.02182848 0.00049239426 -0.0044251047 -0.02122232 -0.01126769 -0.030225934
-0.0492914 -0.02622103 -0.027151141 -0.015726048 0.015710102 -0.010977659 -0.017101945 -0.029546542
-0.015967514 -0.009048616 -0.048655756 -0.036977664 -0.016831832 0.012423939 0.007677103 -0.08973843
-0.091413915 -0.06556193 0.055813074 0.06872916 0.05831768 0.12329018 0.15293764 0.09899489
0.006216179 0.029607868 0.034267787 -0.12856033 -0.10682292 -0.120160185 -0.11383936 -0.09890134
-0.11175022 -0.0072230464 0.0134783145 -0.011794379 -0.05320675 -0.06951042 -0.059846144 0.05153389
0.013915016 -0.035858005 -0.011829704 -0.011335471 -0.042549785 -0.041839004 -0.03215543 -0.051211737
0.00042068522 0.016443163 0.0030743205 -0.00028627642 0.029933246 0.019436372 -0.03661928 -0.0043924055
-0.011340783 -0.013871334 -0.016848583 -0.010972094 -0.008892639 -0.004982251 -0.019019082 -0.00604067
0.00045302595 0.010054314 0.034582034 0.04623329 0.024689138 0.033068065 0.04843858 0.040083572
0.0020138826 -0.0071910317 0.020089177 0.0019686106 0.03482825 0.035877004 -0.004033349 0.03932044
0.0106999045 -0.021980189 0.007858194 -0.012457239 -0.016173746 0.046620306 0.04381251 -0.010993182
0.020938532 0.007858396 0.01735915 -0.007878297 0.0024583968 0.042175177 0.0469074 0.072989255
0.013798095 0.034073893 0.057216313 -0.00094172347 -0.02335246 0.0016398467 0.005417365 -0.0034045354
-0.01188856 0.01254997 0.023853127 0.0018433839 0.04485336 0.032485638 0.024499487 0.056115422

contour_1.0.bias f4 [8]
00000000: 23b1 d2b9 e54d a239 8413 d438 df34 9dba
00000010: 2383 c4b8 c71c 6bba cd9e eab9 f29a 273a
-0.00040186298 0.00030957084 0.00010112583 -0.0011993906 -9.3704344e-05 -0.0008968827 -0.00044750274 0.0006393633

contour_1.1.weight f4 [8]
00000000: 9215 ec3e d2e9 063f 8cc0 603f f060 3c3f
00000010: 1860 673f 940a 003f ae97 223e dc15 503f
0.46110207 0.5270053 0.87793803 0.73585415 0.90381 0.5001614 0.15878174 0.81283355

contour_1.1.bias f4 [8]
00000000: 9e7b 2c3f e52f 5fbf 8de2 ccbe 1870 fb3e
00000010: 3689 9ebe a5e5 4a3f 25d2 553f fef7 79bf
0.67376125 -0.87182456 -0.40016595 0.49108958 -0.3096406 0.7925666 0.8352378 -0.9764403

contour_1.1.running_mean f4 [8]
00000000: 4344 febd 5a86 9a3e 784e 633f 569a acbe
00000010: fe44 ea3d 98ee 08bf d10b 813f 7c4a d03e
-0.12415364 0.30180627 0.8879161 -0.337115 0.114389405 -0.53489065 1.0081731 0.40681827

contour_1.1.running_var f4 [8]
00000000: bde7 a83e c5a2 453e d0c7 4f3f 4214 823e
00000010: c028 a63e d6a5 da3e 635f 933f 1fe4 8b3e
0.32989302 0.19300373 0.81164265 0.2540608 0.32452965 0.42704648 1.1513485 0.2732248

contour_2.0.weight f4 [1, 8, 5, 5]
00000000: 40a4 883c 30ff 503d 2d43 30bd 5dfa 583d
00000010: 24a3 193d c809 f4bb ebc7 643b eb3e 8abd
00000020: d46d 59bc c39e 163c 6495 053c 93fc 803d
00000030: 67f6 93bc 0779 663d 43e3 6e3d 1eb6 493c
00000040: b839 2bbd cb89 8bbd ebf8 f2bb 519f bbbd
00000050: 1fc8 a5bc b44d e4bc b80e 0fbe 8fb1 adbd
00000060: e99d 70bc 1f18 03be 637e 4dbe b636 5fbe
00000070: a657 6dbe 10f8 5dbe 98df c33c 50fb 0d3d
00000080: 2228 37bd 5029 1ebc 5031 193c 9236 9cbc
00000090: 79a0 abbd e3aa c43c b8da b2bd b815 0abd
000000a0: d60e b33c 3323 c9bb 8e23 ad3c bc3c 1f3d
000000b0: cc67 363d 8095 7eb9 f09f c63b 716e 78bc
000000c0: 4f67 6b3c fa07 043d f55f 923d bfa9 55bd
000000d0: 343f 48bd 2455 9dbd 617d b5bd cb32 74bd
000000e0: b7fe a23c 7047 133d 0ce6 7cbc e1bf 2b3d
000000f0: d99e 213c eda2 9a3c c05d 8c3d 1292 71bc
00000100: aca0 1b3c 923c 93bc 27a3 5c3d 48fc 003c
00000110: d4bc 5c3d 428b 0e3d 3092 7dbc 5ce6 523d
00000120: d451 2dbb b69c 063c e783 bcbc 750e 853c
00000130: bf54 2c3d 1ce8 cabb 0220 673d 00f1 2b3d
00000140: 0e36 1abd 2cec 41bd c8cf 73bd b7ab 74bd
00000150: ae5f 69bd 9fd6 53bb d747 48bc 4fb6 62bd
00000160: c876 52bc 9922 16bd dc33 8d3c 6a3f a33c
00000170: 82c9 0ebb e609 a83c 8f78 af3c f8f9 253c
00000180: 1eb8 333c b55f a4bc 2db7 c53c a8dc 0a3d
00000190: 3b7d 593c 5be8 ad3d 3872 e83c fedb 193d
000001a0: cfdd 883d 9e96 6bbd a4b1 a3bd 658b 8dbd
000001b0: c5e8 99bd 6627 f8bd c769 873d 812a aa3c
000001c0: aa84 2f3d 62b2 3a3d dd05 143d f914 3ebc
000001d0: 6bf8 debc 3b0d 52ba fca4 79bc b064 04bd
000001e0: ea16 333c d27a b83c 60cd 813b a067 ae3c
000001f0: 1088 0abc 4aac cd3c 8a5a bc3c 9a06 47bd
00000200: fd15 223c 4986 973c 4164 d63c 44e7 81bc
00000210: 0bd0 72bc b0fa 2d3b bb59 ccbb 2713 e5bd
00000220: 8143 f3bd 1df3 3cbe e76e 19be ac01 0bbe
00000230: 6f7c 263d be4e 213d 0215 4dbd 35db 873d
00000240: 61c3 d23c d938 e93c 46cd 903c 33a3 2d3a
00000250: 6eb0 2d3d d8e0 a33d 2114 7f3c bf9a c9bc
00000260: c43e fdbd 4904 5cbd 282a 1bbd aada 74bc
00000270: c2d4 2bbd 05f5 cdbd b4c6 18bd 9732 963c
00000280: 0007 dbbd 8caf b7bd c987 61be f705 9fbd
00000290: af3e b5bd 5925 7cbd e35b 82bd 6d72 21be
000002a0: 25af c8bd 0bbc 87bd dc1e 393d 476b f5bc
000002b0: 6dd3 cfbd 1815 17bd 926a 853d 2e3d 153c
000002c0: 6566 35bc ff18 303c 0fde 283c 4aaa 1a3d
000002d0: 5636 d2b9 2a6b f13c 6cda 16bd 5ba7 bfbc
000002e0: 5b0f 2a3d 054b 9fbd 8f3a 363c 41c8 26bd
000002f0: 8f06 97bd 54d0 f2bd 6e13 5b3d cfcf d03d
00000300: b319 393e 6ad6 7e3e 202d 973e 8338 44bd
00000310: f748 fbbc 523b dd3d 1fde c13d 71d0 f03b
0.016679883 0.051024616 -0.043032814 0.05297314 0.0375091 -0.007447455 0.00349092 -0.06750282
-0.013270814 0.009193125 0.008153293 0.06298175 -0.01806183 0.056267764 0.058322202 0.0123114865
-0.04180309 -0.06813391 -0.0074149272 -0.091612466 -0.020237027 -0.027869083 -0.13970459 -0.08481132
-0.014686086 -0.1280217 -0.20067744 -0.21798214 -0.23177966 -0.2167666 0.023910329 0.0346635
-0.044716008 -0.009653404 0.009350136 -0.01906899 -0.08380217 0.024007266 -0.087331235 -0.03371212
0.02185766 -0.0061382293 0.021135118 0.03887628 0.044532582 -0.0002427902 0.0060615465 -0.01516305
0.014367892 0.03223417 0.071472086 -0.052163836 -0.0488884 -0.07682255 -0.08861805 -0.059618752
0.019896848 0.0359568 -0.015435707 0.041931037 0.009864532 0.018876517 0.06853819 -0.0147442985
0.009498756 -0.017973218 0.05386653 0.007872649 0.053891018 0.034800775 -0.015476748 0.05148922
-0.0026446478 0.008216074 -0.023012115 0.016242245 0.042073008 -0.0061922204 0.05642701 0.041977882
-0.037649207 -0.04734437 -0.059524328 -0.059734073 -0.056976013 -0.003232397 -0.012224159 -0.055349644
-0.0128457025 -0.03665409 0.017236643 0.0199277 -0.0021787588 0.020512532 0.021419792 0.010130398
0.01096919 -0.020065168 0.024135197 0.03390184 0.013274486 0.08491584 0.028374776 0.037563317
0.06682932 -0.057516687 -0.07992867 -0.06911353 -0.075151004 -0.1211689 0.06611972 0.02077222
0.042851128 0.045580275 0.036138404 -0.01160168 -0.027218064 -0.0008012836 -0.015237089 -0.032322586
0.010930756 0.022519503 0.00396125 0.021289647 -0.008455291 0.025106568 0.022992391 -0.04859028
0.009892938 0.01849665 0.026170852 -0.015857346 -0.014820109 0.0026547126 -0.0062362826 -0.11185294
-0.1187811 -0.18452115 -0.14983712 -0.13574857 0.040646013 0.039381735 -0.050068863 0.06633607
0.02572793 0.02846949 0.017676007 0.0006623745 0.042404585 0.0800187 0.015568764 -0.024609922
-0.12365487 -0.053715024 -0.037882 -0.014944712 -0.04195095 -0.100564994 -0.037298873 0.01833467
-0.106946945 -0.0896903 -0.22024454 -0.077648096 -0.088498466 -0.061559055 -0.06365182 -0.15766306
-0.09799031 -0.06627663 0.045195445 -0.02995838 -0.10147748 -0.03688535 0.06514467 0.009108825
-0.011071776 0.010748147 0.010306849 0.037760057 -0.00040094805 0.029470045 -0.036829397 -0.023395231
0.04151855 -0.07777981 0.01112236 -0.04071832 -0.07374298 -0.11856142 0.053485326 0.10195886
0.1807621 0.2488648 0.29526615 -0.047905456 -0.03067444 0.1080233 0.09466194 0.007349067

note_1.0.weight f4 [32, 1, 7, 7]
00000000: 46cc efbd e5c4 1dbe 5a93 3e3d 7463 033e
00000010: fac0 c7bc 7aad 5e3e b158 da3d c35b eabd
00000020: e0bf 42be b41c 4ebd af43 4ebd 31cb 913d
00000030: 00f6 4cbe 1291 d13d e589 203d e6c5 76bc
00000040: f1d0 fb3d 1a05 7b3e 1286 df3d e33a a03d
00000050: a76f f33c 7bcd 043e 7fc4 923d b784 0f3e
00000060: ac7c 543e 3577 dabd 2a01 77be f797 38be
00000070: 6aca 6cbe 9c15 5ebc fcb8 b2bd 565b bebd
00000080: e68e 993d d61e 3ebc 292b 213e ff90 63be
00000090: f07f 043e a6c5 3fbe 4959 4fbd bcd7 473d
000000a0: e2d2 e5bd f1b7 1ebe 55be 173e 0744 a53d
000000b0: 1560 bebd 9f4f f43d de98 27be 43bd 8dbe
000000c0: 581c 9dbe cf31 47be 94c3 c1be 0175 c3bd
000000d0: 3c8a 16be ab71 02be 177b 81be a329 00bf
000000e0: ca22 3ebe 0ced 08be 222c e0bd 0816 23be
000000f0: dfcb 09be c34d 47bd 9e4b d8bd b4d3 0b3e
00000100: a03c d93c f8d3 6d3b 7129 b03d 26af 043e
00000110: 3f62 9a3d cdfc ef3d cba7 ecbd ad81 813c
00000120: 8597 98bc 4d74 c33d eb72 dc3d 708f 25be
00000130: fe61 383d dbe6 b43d ccd2 86bc f0f8 a13d
00000140: 3b98 fd3d 97b2 693d 7b89 00bd dff4 f93d
00000150: a965 b4bb 4e03 36be 91b1 0ebe 0375 243e
00000160: 97eb 193e 0895 b4bd 588f 58bc b0b4 c5bd
00000170: 2217 88bd 9d87 6d3c d37c 643d 2aef d63c
00000180: 10fd 423d 9a1a 3dbe e204 e03d 6861 d0bd
00000190: 8eb1 3e3d a3ef a9bd 48be 3a3e 08c5 b93d
000001a0: 05a5 493e daf8 2f3e 99bd 2d3e feeb a73d
000001b0: 6715 193e 7b42 0fbe bcbd 053e 6514 5f3d
000001c0: 212e 013e 94e7 193d 097b 12be 6401 093e
000001d0: e6c9 1fbe 0675 b1bd 59f3 c2bc 319c 6bbd
000001e0: e8a5 86be 15f4 7fbd f498 4ebe 2b3f 0ebc
000001f0: 2f0a a8be ebcd b7be e050 683d 1690 92bd
00000200: fdc0 183d 17e3 2dbe 9728 3b3e 9fcb 3fbe
00000210: 9ef8 14be f9e6 50bd c149 753d ebb1 2c3e
00000220: aef5 ca3d bced 65bd b4dc ecbd f6fc ebbb
00000230: afe0 3b3e 124d 463d 986c cb3d f269 853e
00000240: 34d6 08bd 5951 fa3d e5d5 acbc 0dff eb3b
00000250: a3fe 083e c3f9 313e f22e 723e e397 e33d
00000260: 4f3c fe3d 1375 1d3e 4b26 bc3d ef5a ac3d
00000270: 05d1 cd3c 060f 313e 90a0 ea3d 6583 17bc
00000280: 1370 2abc 6cc1 e83d 5fe6 f8bc 048d 26bd
00000290: cf0c 323e 3eae 4f3b a44d 9d3b 8604 afbc
000002a0: efba 043d d70a e5bd 3f69 ddb9 8e64 fa3d
000002b0: 0fc1 3d3d 5113 773d adde a0bd e416 563d
000002c0: 02d8 513c d331 9b3d 0b83 373e 47a8 3f3c
000002d0: e6d6 babc 8eaf 0cbc 8a3d cebd a79d 11be
000002e0: 1697 8abd 1375 9f3c 4b80 d8bd b6d0 e6bd
000002f0: 9143 7fbd 8292 88be 194e 7cbe 95b7 63be
00000300: 6b8f d0bd d8af 37be c042 b7be 14d3 fbbe
00000310: e1fb f9bd 733b 23bd 81aa 36be 9648 0c3d
00000320: bccb b0bc 2f06 8abe a606 b1bd 5ee8 81be
00000330: 8dbd 93be 0962 63be 7cb6 21bd 8f58 473a
00000340: 23d0 51be 8be7 78be a9c7 323d 8413 a5bd
00000350: 89c5 4b3c 320b fb3d 3e76 c33d bdf6 86bd
00000360: 126c 1c3e 0f40 c03c eeda c73c 224e 0e3d
00000370: d845 db3d 27ce 0e3b d8b8 4fbd 88b0 aabd
00000380: 2da4 f43c afbb 033e 4e8b 293e 77ce 673e
00000390: 5bb5 3d3e b435 c9bd 9729 a43d 1d2b 6cbe
000003a0: f4f4 0dbe 0179 e4bd 95f7 6dbd 2b0b b7bc
000003b0: a8f9 5dbd 8833 273c d333 a9bd 0223 81bc
000003c0: e76b 03be adf9 3fbd f932 4cbe 1182 90be
000003d0: ee77 a4be 1466 f13d 7967 3e3e e3f8 4c3e
000003e0: 2a4d 593e 39f6 473e c11b 5e3e cddb 623e
000003f0: 8046 873e 38ec 933e 9379 933e 1665 913e
-0.11708884 -0.1540714 0.046527244 0.12830907 -0.02438401 0.21745864 0.10661448 -0.114432834
-0.19018507 -0.050320342 -0.050357517 0.07118834 -0.20015717 0.10232748 0.039194006 -0.015061831
0.12295712 0.24513665 0.10914244 0.07823732 0.029716326 0.1296901 0.07166385 0.1401547
0.20750684 -0.10667268 -0.24121538 -0.1802672 -0.2312409 -0.013554957 -0.08726689 -0.09294765
0.07497959 -0.011604032 0.1573912 -0.2222328 0.1293943 -0.1872774 -0.05062226 0.048789725
-0.11221863 -0.15499856 0.148187 0.08069616 -0.0929567 0.11929249 -0.16366908 -0.27683458
-0.30685687 -0.19452594 -0.37844527 -0.09543801 -0.1470117 -0.12738673 -0.25289223 -0.5006353
-0.18567958 -0.13371676 -0.10945918 -0.15926373 -0.13456677 -0.048658144 -0.10561298 0.13654977
0.026518166 0.0036289673 0.08601654 0.12957439 0.0753827 0.1171814 -0.115554415 0.015808905
-0.018626938 0.09543667 0.10764106 -0.16167998 0.045015328 0.08833095 -0.016457938 0.07908809
0.12382551 0.057055082 -0.03138111 0.122049086 -0.005505283 -0.17774698 -0.13934924 0.16060261
0.15031277 -0.08817488 -0.01321777 -0.09653604 -0.06645037 0.014497665 0.055783104 0.02623709
0.04760462 -0.18467179 0.10938431 -0.10174829 0.046556048 -0.0829766 0.18236649 0.09070784
0.19691856 0.17184773 0.16966857 0.08199309 0.1494957 -0.13990204 0.13060659 0.05446281
0.12615253 0.037574366 -0.14304747 0.13379437 -0.15604362 -0.086648986 -0.023797678 -0.057522003
-0.2629845 -0.062488634 -0.20175534 -0.008682053 -0.3282027 -0.3589929 0.056717753 -0.071563885
0.037293423 -0.16981159 0.18277203 -0.18730019 -0.14547965 -0.051001523 0.05988479 0.16864745
0.09910141 -0.056134924 -0.11565533 -0.007201786 0.18347429 0.048413344 0.09932822 0.26057392
-0.033407405 0.12222547 -0.021098087 0.0072020353 0.13378386 0.17380433 0.2365072 0.111129545
0.12413847 0.15376692 0.09186991 0.08415782 0.025124082 0.17290887 0.11456406 -0.0092476355
-0.010402697 0.11365017 -0.030383287 -0.040661827 0.17387699 0.003168955 0.0048005152 -0.021364462
0.032404836 -0.11183708 -0.0004223082 0.122262105 0.046326693 0.060321156 -0.07854972 0.052267924
0.012807848 0.075778626 0.17921083 0.011697835 -0.02280755 -0.008586777 -0.100703314 -0.14220296
-0.067670986 0.019465005 -0.10571345 -0.11270277 -0.062320296 -0.26674277 -0.24639167 -0.22238
-0.10183605 -0.17938173 -0.35793114 -0.49184477 -0.12206245 -0.039851617 -0.1783848 0.03424891
-0.021581523 -0.26957843 -0.08643846 -0.25372595 -0.28855553 -0.22205366 -0.03948067 0.0007604444
-0.20489554 -0.24307077 0.043647442 -0.08060363 0.012437233 0.12257995 0.09544037 -0.0659003
0.152756 0.023468046 0.024396386 0.034742482 0.10706681 0.0021790357 -0.05071339 -0.08334452
0.029863441 0.12864564 0.16557047 0.22637354 0.18526213 -0.09824696 0.08015745 -0.23063321
-0.13862973 -0.11155892 -0.05809744 -0.022344192 -0.05419317 0.010205157 -0.08261838 -0.015763763
-0.1283413 -0.04686897 -0.1994132 -0.28224233 -0.3212275 0.11787048 0.18594159 0.20016818
0.21220842 0.1952752 0.21690275 0.2215416 0.26420975 0.28891158 0.2880369 0.28397435

note_1.0.bias f4 [32]
00000000: 11af 9e3e c786 0d3f 293d a03e 9cd3 e23e
00000010: 4a31 133f f73c c1bd 5d92 2ebd 0c0c 61be
00000020: fa78 963e c3d0 ef3e 1cda 2a3f 5784 66bd
00000030: c60e 1d3e 1bb5 123e c94b a53e 1f2e adbe
00000040: e433 023f 4582 1c3f 573d acbe 8400 aa3e
00000050: a51e 0a3f 2900 123f 76c8 2b3e d074 aabd
00000060: aa3d 87bd 035b 2d3f 63ff 853f 834a 79be
00000070: f31a 553d 81fe 3e3d c46b 1f3e 9d99 2f3e
0.3099294 0.5528378 0.31296661 0.4430207 0.57497084 -0.09435456 -0.04262005 -0.21977252
0.29389173 0.4683896 0.6673906 -0.056278553 0.15337667 0.14326899 0.32284382 -0.3382425
0.5086043 0.61136276 -0.3364055 0.33203518 0.5395301 0.57031494 0.16775689 -0.083230615
-0.06603558 0.67717 1.0468563 -0.2434483 0.052027654 0.046629433 0.15568453 0.17148443

note_1.2.weight f4 [1, 32, 3, 7]
00000000: 8e29 c23a e2a2 92bb bc10 73bc 0f6a 0fbd
00000010: 6d9c 98bc 7002 8dbc 462f a3bc 0aa6 a4bb
00000020: 2eb2 1fbc 3cb0 95bc 9b49 0ebd 3311 99bc
00000030: 380a 83bc 5236 8fbc cbbf 003b 2edf aa3a
00000040: 8c77 86bb 63e9 98bc 8438 32bb 52ab 963a
00000050: f017 513b 668a 8cba 9936 d5ba 45ea acbb
00000060: fd7c abbc 2470 5cbb d12a e63a b00e bf39
00000070: 4597 4ebc 8efb 6dbc 7468 9dbc 9bde 0cbd
00000080: f62d 91bc 3062 4dbc 14c1 5ebc b1be a6bc
00000090: 4590 c4bc f6d1 f9bc f7f5 4cbd 8da2 efbc
000000a0: 5697 bfbc 76e3 ddbc c810 133c 95e6 f53b
000000b0: 9bab a03b 0930 1ebb 3987 2a3c ab20 573c
000000c0: 5c91 223c 63b0 b5bc e30b cebc 9954 f2bc
000000d0: 4d97 29bd d40b c8bc 7ac5 c2bc ec21 0abd
000000e0: bc9a 513c e52b 3b3c a6dd fa3b a3b5 adba
000000f0: 8375 383c bc01 7a3c c36b 6b3c 7e30 50bc
00000100: 77d0 89bc 06d1 b4bc 8554 1ebd 1d79 a7bc
00000110: f1b0 94bc 0bb7 bebc f1c5 e1bb ab5d fabb
00000120: 0fb3 22bc 73f1 b3bc 9499 edbb 8441 9bbb
00000130: b714 dcbb c365 ac3b 6efb 8f3b a447 283b
00000140: 9be3 e9bb f81d c93b c66d 173c cb27 0b3c
00000150: 0ca4 01bc de07 47bc 1ca9 b9bc b83b 35bd
00000160: 2ac6 aebc 9948 82bc f446 94bc 26fd 14bc
00000170: 2fb0 44bc 5693 a4bc 939d 18bd bbd3 92bc
00000180: 9044 50bc a4a6 50bc 960d 17bc c29f 3ebc
00000190: 70dc a6bc ea62 24bd 500b 88bc 9cb7 29bc
000001a0: a544 32bc 7c68 763c c2c7 e93a a1d6 c6bb
000001b0: 738f f2bb f821 a0bb 1d71 43bb d298 25ba
000001c0: b2ac 87bd 832e 80bd c344 5ebd 97bf 33bd
000001d0: f03a 17bd 9fe9 1abd a64d 37bd 575e 1f3d
000001e0: 5e11 253d dffa 343d fd46 4b3d 835c 503d
000001f0: ced6 543d 9fa4 5a3d e566 363e ef07 483e
00000200: 24a4 513e a9f7 4c3e 9e01 3d3e c067 1c3e
00000210: 5b67 003e 4910 973d 6359 a23d a453 8b3d
00000220: f70b 933b 955c 023d 4fd6 e33c dce1 cd39
00000230: 4786 85bc d2d6 e6bb 528b aabb 4f91 28bd
00000240: 9f03 1bbb 9256 d83c fd81 343d 7fe4 123a
00000250: 1e4c 7dbb 56eb 4ebb 31b8 9aba 491c de3a
00000260: 3dec 523b 6197 993b 2c54 a9bc 8056 83bc
00000270: e815 b6bb 7fdf 923b 4674 1a3c 5bc1 cb3b
00000280: 2240 66bb c86d 3e3d fe6a 443d 70b7 533d
00000290: b94e 643d 30c2 673d b543 6b3d 7348 6f3d
000002a0: dc4a ab3b 0d65 b8ba be8c dfbb d0a6 9bbc
000002b0: b550 9d3b 8645 3d3c 9783 3b3c ba57 a6bc
000002c0: 4b37 f5bc 3d57 19bd 3e56 57bd d712 eebc
000002d0: d0d5 ccbc 2d7e efbc 0b29 bc3b ff6f 863a
000002e0: dba9 eaba 54b2 23bc 46fd 203c 6000 7e3c
000002f0: c148 873c 11bf 213c 5b20 293c 1ffb 113c
00000300: b694 59bb a039 c33b d6a8 093c 9d94 233c
00000310: 0e69 5ebc 14be 4bbc b61d 66bc a929 f3bc
00000320: ab2a 97bc 4e5c 89bc 8b7f 8abc 0259 61bc
00000330: 8ce3 87bc aa1b b2bc 2c6f 2abd ccd3 e4bc
00000340: d65c d3bc 1015 e2bc 88f8 8eba 454d 1ebb
00000350: 4175 d1bb bf66 bdbc 0123 56bb f6a6 b33a
00000360: cff7 313b b839 73bc 3d54 8cbc 8446 b5bc
00000370: b26f 20bd 5b97 a7bc 5a2a 82bc 680f 6cbc
00000380: f669 a7bc 6058 ccbc 7a90 02bd d6f1 57bd
00000390: b4f6 f2bc 70c8 c7bc d810 c8bc a3f8 ae3d
000003a0: 10e2 b63d 9451 b23d 5a92 b83d 4767 933d
000003b0: 69a4 333d d963 023c f855 f13b e793 133c
000003c0: a806 c23b 0092 d13b d253 a13b 2f8a c83b
000003d0: 359d c43b fa9f 60bc c253 1abc f8cb 8dbc
000003e0: 9e6d 06bc 8ed8 9db9 c409 763b 2823 00bb
000003f0: 1bf6 a63b 68d9 a43b 5973 d63b 5bf9 73bb
0.001481341 -0.0044749836 -0.014835533 -0.035013255 -0.018629277 -0.017213076 -0.019920003 -0.005024676
-0.009747071 -0.018272512 -0.034738164 -0.018684959 -0.015996084 -0.017481957 0.0019645568 0.0013036483
-0.0041036066 -0.018665975 -0.002719433 0.0011495149 0.0031905137 -0.0010722398 -0.0016266882 -0.0052769505
-0.020933622 -0.0033636177 0.0017560368 0.00036441302 -0.012609308 -0.014525307 -0.019214846 -0.03439198
-0.017722111 -0.012535617 -0.013595838 -0.0203546 -0.023994574 -0.030495625 -0.050039258 -0.029252315
-0.023387592 -0.027086 0.008976169 0.007504294 0.0049032695 -0.0024137518 0.010408216 0.013130347
0.009922352 -0.022178834 -0.025152152 -0.029581355 -0.041404057 -0.024419703 -0.023775805 -0.033723757
0.012793239 0.0114240395 0.007655817 -0.0013252984 0.011258486 0.015259203 0.014368954 -0.012706874
-0.016823037 -0.022072326 -0.038654823 -0.020443494 -0.018150778 -0.023280641 -0.0068900515 -0.0076405606
-0.009930386 -0.021965718 -0.007250974 -0.0047380347 -0.0067163366 0.0052611544 0.0043939864 0.0025677467
-0.0071377284 0.0061376058 0.009242481 0.008493374 -0.007912647 -0.012147872 -0.022663645 -0.044246405
-0.021334726 -0.015903758 -0.01810024 -0.009093558 -0.012004896 -0.020089786 -0.03725965 -0.017923227
-0.012711659 -0.012735043 -0.009219548 -0.011634769 -0.020368785 -0.040133394 -0.016606957 -0.010358717
-0.010880624 0.015039559 0.0017836022 -0.006068066 -0.0074023544 -0.004886862 -0.002982206 -0.00063170225
-0.06624736 -0.062588714 -0.054264795 -0.043883886 -0.03692144 -0.037820455 -0.044751786 0.03890833
0.040299766 0.04418456 0.049628247 0.050869476 0.051962666 0.05337965 0.17812689 0.19534276
0.20472771 0.2001635 0.18457648 0.15273952 0.12539427 0.07376153 0.079272054 0.068030626
0.0044875103 0.031826574 0.027812151 0.00039268925 -0.01629938 -0.0070446515 -0.0052045966 -0.041154202
-0.0023653281 0.026408467 0.04406928 0.00056035066 -0.0038650106 -0.0031573377 -0.0011804161 0.0016945685
0.0032184266 0.004687235 -0.02067002 -0.016032457 -0.0055568106 0.004482209 0.009427136 0.006218118
-0.003513344 0.046491414 0.0479536 0.05168861 0.05573914 0.056581676 0.057437617 0.058418702
0.00522743 -0.0014068201 -0.0068221977 -0.01900044 0.004800881 0.01155222 0.011444948 -0.020305503
-0.029933592 -0.037436713 -0.05257248 -0.029061718 -0.025004297 -0.02923497 0.0057421974 0.0010256766
-0.0017903404 -0.009991247 0.00982601 0.015503019 0.016514184 0.009872214 0.010322656 0.00890997
-0.003320021 0.005957797 0.00840207 0.009984163 -0.013574852 -0.012435455 -0.01404517 -0.029682951
-0.018452963 -0.016767647 -0.01690652 -0.013754131 -0.016587995 -0.021741707 -0.041609928 -0.027933024
-0.025801104 -0.027597934 -0.0010907808 -0.0024154943 -0.0063921516 -0.023120282 -0.0032674673 0.0013706374
0.0027155762 -0.014845304 -0.017130012 -0.022128351 -0.03916902 -0.020457914 -0.015889335 -0.01440797
-0.020436268 -0.024944484 -0.031876065 -0.052720867 -0.029658653 -0.024387568 -0.024422094 0.085435174
0.08929837 0.08706966 0.09012289 0.07197433 0.043857966 0.007958376 0.0073649846 0.009007431
0.0059212036 0.0063955784 0.0049233222 0.0061199884 0.006000186 -0.013710016 -0.0094193835 -0.017309174
-0.008204846 -0.0003010672 0.0037542442 -0.0019552205 0.005095256 0.0050307997 0.006544512 -0.0037227485
